SeqPredNN/final_model_200_20/model_parameters.pth (torch, 172841 bytes, 8 tensors)

linear_relu_stack.0.weight f8 [64, 180]
00000000: 2940 e05f ea18 1740 de94 3925 19a0 9dbf
00000010: 1270 1272 8682 91bf e307 9875 b239 1740
00000020: 4c06 97d7 6399 7ebf dce3 b82f 85fc 91bf
00000030: 0672 e74c d454 a9bf f1cb 5d18 5f63 643f
00000040: 7cff 1b4b db36 67bf e992 4738 a602 8abf
00000050: b872 6a8b c425 8dbf dd12 de49 49a7 60bf
00000060: 6fb0 6388 5525 60bf 926a 9b0e 6541 813f
00000070: a68e 5582 0be9 5f3f 5c7a 7deb 2ff0 6abf
00000080: 9d76 5c28 443a 60bf 241d 1ec9 519e 86bf
00000090: 2047 683b 0ae4 8a3f ba27 fb7b 2cc6 793f
000000a0: 51a4 2c34 c7ab 7abf 798c edfc 7b47 823f
000000b0: 87a2 0296 2d26 7ebf d970 6f40 262a 86bf
000000c0: 2a58 9f5d 66c0 8b3f d7c6 ca57 21bf 6c3f
000000d0: 262a 1889 d27e 643f 7f3a 7f5d 8b94 8ebf
000000e0: c02b 1e4a 379f efbe 72ac 02e3 28e2 7c3f
000000f0: 893b 2ca6 bff9 74bf a2a8 2f56 dd34 7c3f
00000100: 3f22 4d4c bf7b 7bbf 3c0f 4c57 9cc6 78bf
00000110: af14 793c 567a 603f abde d295 21ab 633f
00000120: fa2d 0fd4 0e43 28bf fcd6 51e7 f408 6f3f
00000130: 86bc 0cb4 1a4d 733f 9443 540b 4a2c 6dbf
00000140: 8455 a96e 4db8 27bf b845 6615 9a94 6b3f
00000150: d509 8071 7302 8bbf ac97 131e c2ce 763f
00000160: 041d 0f3b c12d 6a3f 6afa 8221 4fa0 573f
00000170: 606f 547a 2504 66bf 20ad 40f9 aa15 12bf
00000180: b19c 2cc0 70bd 563f 8048 2ada 3966 aa3f
00000190: 3987 5dc0 4360 91bf 9e38 8d2b 3705 c73f
000001a0: 99dd a8f5 8cac b4bf 94df 9f3d b20c 70bf
000001b0: 2b11 169e 7d06 a9bf 3957 96ff 1e6d c7bf
000001c0: e7f5 ad74 fc51 9b3f e7ee b73a 9815 90bf
000001d0: fdc5 4257 cdaf aa3f 552a 7c8c d787 b13f
000001e0: b3bd 5f7d ff59 9cbf 7352 aec8 32d7 8ebf
000001f0: ab7b 82f4 467f a8bf 8203 0c30 5eca b23f
00000200: 141a 16ca 83df c43f b58a 28f2 9150 b1bf
00000210: e15d 1b56 0729 a63f 2db8 1613 b64b c53f
00000220: 3e84 b63a 1bde b5bf 8dc3 f4c5 2fb3 8b3f
00000230: 1500 4d4b 7e38 aa3f f833 7b55 1909 aa3f
00000240: 2dee 0474 f01e c23f 802f 965f 95aa b33f
00000250: 461d a385 b029 90bf 9428 266f dbc9 a33f
00000260: d264 5ea1 372c a0bf 9277 c2f9 ef0b 3e3f
00000270: 69f8 865a 8753 933f f08c 5aba 3029 a5bf
00000280: 30ed 559e 018b ad3f 0f16 bc30 27ee bbbf
00000290: 4f83 7c5b 1836 7d3f 4829 356d dc74 993f
000002a0: 18b8 4abd b214 723f 9f53 1de0 f161 9c3f
000002b0: 0c41 2435 8a5e b4bf 7a28 59c5 9aad a5bf
000002c0: 2bd1 7389 d26f a33f 794d 0314 9266 93bf
000002d0: ef09 a993 91fa a8bf db75 2b2b d40d adbf
000002e0: 9b93 9800 4813 b3bf 761f eff1 b508 823f
000002f0: f6fb e596 be3d a8bf 7835 9e4f 0121 b0bf
00000300: 7a0b 9e8d a1e3 693f 2843 0ca3 1091 87bf
00000310: eb71 bc0a 4d03 c23f 27ce 075c 192b a63f
00000320: 3de7 0b4e 8fb3 8abf 7057 1e88 208b b53f
00000330: af21 dadd 790a 74bf 0323 bdbc 5d12 893f
00000340: ba05 246a ea07 503f e332 77d8 a349 a63f
00000350: 0b16 1a8f fcd9 743f 6ff6 5c4e 33c6 9c3f
00000360: ee7e dfa1 2c0d 963f b5b7 9f09 adbe 91bf
00000370: 4bf4 47b6 6572 76bf 70ee 8e93 f5a6 91bf
00000380: 21b5 db16 c0d5 0240 2343 1ec2 b393 e63f
00000390: efa3 767c 4009 0ac0 cb5c b643 5b48 1140
000003a0: c112 c50f 5885 c43f c06f 9872 7e7f b5bf
000003b0: 2590 e81e d4a2 a2bf 45cb c0c4 62d6 c53f
000003c0: 9c6f dcb0 2a09 c73f 6046 05df f91b c2bf
000003d0: 2c97 fea5 7131 b1bf 4d1b a3fc 803e b2bf
000003e0: ccdf 16e8 9428 bd3f c171 d0c5 12f9 913f
000003f0: 67cc a035 06d9 d13f 888b b752 2e69 a63f
00000400: 36a2 4507 8ac2 ca3f 9a94 f932 7c50 b63f
00000410: d7d1 b3df e85e ca3f 7629 bdba 864a bb3f
00000420: 35cb fd6c 22fc c33f 969a 76a0 e57c 813f
00000430: 33d4 8f99 acca cd3f 7059 032e d271 a63f
00000440: 0358 15ed aa3c 8d3f 59cc eb43 1b6a 953f
00000450: 6bc2 460f 5fc8 be3f 5844 815f a277 b33f
00000460: 3699 3096 4418 92bf 8afa ac98 bd38 b8bf
00000470: 308d 7ced fe5a 913f 221a bac8 7e49 813f
00000480: 3962 4a77 c851 8abf f2bc 94a4 529e abbf
00000490: aeb5 33d5 b8d3 a13f a43b 61a6 2d7c 3cbf
000004a0: 55c5 9db7 9225 a0bf 3188 c092 38f9 babf
000004b0: f80f 3ede b631 80bf 38e2 f02f bdde 9bbf
000004c0: 3eff 457d 83d9 a33f acab 13c8 3c51 8dbf
000004d0: 1dc0 f842 cbd5 b4bf dafe 1bfe 9445 9b3f
000004e0: 1042 c98c aba7 a4bf b02b e93b 6db9 b43f
000004f0: f2a7 c571 e2bc bc3f a110 c4ef 489b 9e3f
00000500: 270f 6cb8 f837 873f 04b0 dc20 8dd7 983f
00000510: 9e8e c2c6 0055 ae3f eb48 6ad5 a09e 783f
00000520: 187e dd23 1fe3 89bf b8a3 a9e1 2d6b 8cbf
00000530: 83ae 5bcf e0e9 5a3f c273 345d d713 82bf
00000540: 8f8a 912f 3005 a8bf a0d7 8b28 daa6 9fbf
00000550: a679 05bf ff20 a4bf e667 4153 8e98 9cbf
00000560: 5f30 ec2c ac57 9b3f 83f4 8e0f 7336 bf3f
00000570: 2783 5c82 656c b93f 5e66 61da 8992 933f
00000580: def6 5191 4e02 b33f 8528 deee c653 a1bf
00000590: 6898 2e56 7153 a43f 35c8 02b9 d4fd afbf
000005a0: d80a 7240 8ca8 e33f 894f 5cfb b147 96bf
000005b0: d490 ded1 798f 92bf a43c f4e5 80b9 e33f
000005c0: e84e 3cac d894 503f c32d 0391 7f1d 753f
000005d0: f8d7 9811 240c c23f bcbf e763 2f08 7fbf
000005e0: a4d5 d348 a2ec 78bf 6206 d49c 0d76 c23f
000005f0: 4ba1 daf0 af32 86bf 868f 7b6a 73c9 763f
00000600: ef76 96b7 54f4 c83f 4ca3 13e2 5d91 a8bf
00000610: a456 89f9 ec0f b73e 35c8 8ae1 dc54 cd3f
00000620: c973 5278 502e 8abf 1f77 e145 dbe7 6f3f
00000630: 1755 5503 d207 c83f bf15 4069 3cce 8cbf
00000640: 9f09 173f 3d8f 81bf 4ac9 952d 16b5 fcbf
00000650: 6de0 0f29 c489 96bf 375b 8a58 f7e2 6cbf
00000660: 4a75 c43c 051b aa3f bf56 7289 2e32 773f
00000670: ab4a 37ee 6a1b 5c3f 21f2 7e7f c400 963f
00000680: 471d 2bbe a924 803f 1612 756a c80e 803f
00000690: 7584 9747 146b 923f 8227 ffa7 3699 a0bf
000006a0: d410 b272 c892 76bf b3ab af04 6f30 833f
000006b0: 8858 d243 ac33 76bf dc9a 4260 e4ca 3c3f
000006c0: c568 7e2c 22fc 8fbf 43a0 a978 1855 83bf
000006d0: 9412 e0fd 5d44 543f 5ecb d0d4 7964 8bbf
000006e0: afb2 bfba f40c 8e3f df71 c1d1 6f7f 7abf
000006f0: ef3e fbe7 d3de 543f e2d6 a4a8 0fe7 773f
00000700: d7df 494c fe6b 5a3f 8d17 404e 0c14 823f
00000710: 1a22 42b2 96ee 5a3f 8afc ec59 4451 76bf
00000720: bfd8 3399 6a47 b93f cb74 7e93 c35f c73f
00000730: c3e9 2b2a 565b d23f 1d48 2b8c 1389 b8bf
00000740: dc20 1a3b fee3 c53f 15f9 dc84 50be cebf
00000750: 0aac 7e83 abea cb3f 8081 7b51 8e42 d4bf
00000760: 0688 78f4 d2ae d0bf 666e 8678 5fd9 a9bf
00000770: e55c 3428 4ba3 ca3f 77d0 70d8 785e a33f
00000780: 275e 5ea1 667a b4bf 9a47 51c1 8f2c 5cbf
00000790: 2f55 8749 e825 ab3f a4ea ef3f 5e40 c1bf
000007a0: 6510 fa45 f32d cd3f 42cf 8585 1294 b13f
000007b0: 2e4d 4bc9 c292 ae3f 7967 55d7 d1d8 98bf
000007c0: c87a 9ac2 aca3 92bf ea71 9ef0 810f aa3f
000007d0: 4206 480f 7bc1 c8bf df10 5f25 98f4 d2bf
000007e0: dc14 2c02 e6b9 c8bf 5afc 7ed4 174a ad3f
000007f0: c897 fb45 c91a b33f 2d97 aed4 1f0c cb3f
5.774331567823574 -0.02893103875830582 -0.017099476539996834 5.806344830898499 -0.0074705028613962325 -0.01756485084317548 -0.049475321185784835 0.00248879025724013
-0.002833774859823222 -0.012700365631596227 -0.014232192520745243 -0.0020328933159724353 -0.001970927292054773 0.008425511844895515 0.001947652091382071 -0.0032883583007071015
-0.0019809085087121995 -0.011044157934306194 0.013130264223068233 0.006292508856583662 -0.0065114766501120505 0.008925408035514547 -0.007360628195023928 -0.01082258113995531
0.013550567371492479 0.003509106753278295 0.002501879884907926 -0.01493176344947966 -1.5078514767249518e-05 0.007051620210556485 -0.00512099135336442 0.006886353107782879
-0.00670981145669508 -0.006048784930275105 0.002011459760782395 0.0024009376489536236 -0.00018510395059788393 0.0037884505532542728 0.004712204274979764 -0.0035611578156324406
-0.0001809687158408729 0.0033667573399689087 -0.013188268567323394 0.005568273803168749 0.0031956457173439885 0.0014420292628042571 -0.0026875240315699517 -6.898742714216534e-05
0.001387939556204459 0.05156117237233193 -0.016968783012436737 0.17984666468186544 -0.08075791356610863 -0.003918358090224578 -0.04887764506114175 -0.18301761131140795
0.02667993986277919 -0.015707377036945493 0.05212251367755625 0.06847903423128206 -0.027687065150471656 -0.01505889582566875 -0.04784604773271125 0.07340038941403118
0.16307113044258925 -0.06763565218038077 0.04328177381620058 0.16637302333896412 -0.08542032416745912 0.013525365093842523 0.05121225995253568 0.05085066956016954
0.1415691915989198 0.07682164748820064 -0.015784032970967553 0.03864942294883736 -0.03158735127289848 0.00045847519664642914 0.01887332429918623 -0.041329882381683336
0.05770115907486184 -0.10910267772495551 0.007131667276355127 0.024859851994997656 0.004414270592560519 0.027717379859797494 -0.07956756398585102 -0.04234012278591677
0.03796251228223676 -0.0189459633555322 -0.04878668715948097 -0.05674613024687477 -0.07451295866537892 0.008805676885358809 -0.0473460730745429 -0.06300361818121825
0.0031603007636830634 -0.011507158256365793 0.14072573684906273 0.04329756973666248 -0.013037795609750819 0.08415416072088333 -0.004892803231662786 0.012242061922408625
0.0009784497456738332 0.04353057877924529 0.00509070068222207 0.028099824579149443 0.021534631137796127 -0.017328933441539813 -0.005480191528929155 -0.017238461619611234
2.354370287494604 0.7055300513621642 -3.254517528887383 4.320660646443865 0.16031933565149895 -0.08397665307751279 -0.036398533604625784 0.17060503584942857
0.1799672473506434 -0.1414787615745352 -0.06716070463752705 -0.07126623313807308 0.11390047708744006 0.017551701854346072 0.2788711093628024 0.043771216962134096
0.20906186442449987 0.08716560596947645 0.20602141306848296 0.10660593089156642 0.15613203355641195 0.008539003333522015 0.23274762628685294 0.043837135426360585
0.014275870666704554 0.020912576695036076 0.12024492381056866 0.07604422408736988 -0.017670699755535334 -0.09461579301294357 0.01694868397238486 0.008440962315273973
-0.012851301327189467 -0.05394228228612431 0.03481843569339148 -0.00043464769840267426 -0.031536660112474614 -0.10536531050505073 -0.00790732255678249 -0.027216869402965055
0.038768872301260235 -0.014315104347096007 -0.0813872374062616 0.02663262177429613 -0.04034172147351367 0.08095438683191847 0.11225714948309909 0.0298892399159888
0.011337226036182436 0.0242597628886614 0.0592422716738643 0.0060106546940394785 -0.012640231401461796 -0.013876303147485433 0.0016426749620518661 -0.008826906711471131
-0.04691458302183548 -0.0309099280593369 -0.03931426245502516 -0.02792570479537195 0.026701631776674947 0.12192458276600075 0.09931024963999545 0.019113687471281053
0.07425395057540693 -0.033842293413799 0.03969911744143034 -0.06248345144685211 0.6143246897412054 -0.021757870642502595 -0.01812544196549555 0.6163944712915463
0.0010120502419725345 0.005155084902252085 0.14099551066618665 -0.007576165311988289 -0.006085046695479521 0.1442276969683461 -0.010838865793019755 0.005563212245508603
0.19495638813253133 -0.04798406014180631 1.3746148167700706e-06 0.2291523076324339 -0.012783650085390523 0.0038947374987817886 0.18773865854988322 -0.014065238916383003
-0.008573988426068989 -1.7942106037777017 -0.022009911543108652 -0.003526194665322359 0.050987399738213826 0.005663091454285839 0.0017155212634533494 0.021487303048831067
0.007882429233531453 0.00784069609529418 0.017986599797840747 -0.032418926246079685 -0.005511076927295206 0.009369723635208027 -0.00542037287700315 0.00043933940492950157
-0.015617625220148654 -0.00943965070946729 0.0012370031249712464 -0.01337523632728271 0.014673149060365402 -0.00646918944775307 0.0012738294025673132 0.005835591475536113
0.0016126616839340269 0.008827301157008605 0.0016437980312124013 -0.005448595997960779 0.09874597778602644 0.18260998441556917 0.2868247424918559 -0.09584161922546781
0.17102029691546405 -0.2401829384561515 0.2180990593018069 -0.31656225163717266 -0.26067041277031 -0.05048654886487895 0.2081083246527903 0.03783013956163555
-0.07999268951095272 -0.0017196086748936024 0.0530235852963109 -0.13477686044628456 0.2279647914584785 0.06866565475303069 0.05971344668582855 -0.024264601486130275
-0.01820249498143303 0.050899563429286435 -0.19340456243667076 -0.29617885255380644 -0.193173171101228 0.05720591038652208 0.07462747534336167 0.2113075054632473

linear_relu_stack.0.bias f8 [64]
00000000: d27d a268 4248 d43f 313f 30b8 08ff 07c0
00000010: 5663 2b4a b736 d23f 37de 068f 8edb f53f
00000020: ffc1 e963 8756 19c0 94f5 06f0 4b9d fcbf
00000030: b398 101d 77df 0340 c5d4 13e5 89db ba3f
00000040: bf88 e914 807a 833f 6fb7 06f7 8376 1240
00000050: db06 8dde ac58 0a40 4fe9 d492 11e1 0040
00000060: 4383 8b9f 2230 0040 d5d7 7042 65e5 03c0
00000070: 8b69 ac7b ad3e f4bf e603 0472 bf80 f5bf
00000080: 4857 8714 359e f8bf 55d1 7d15 a132 dcbf
00000090: 12f3 3f80 69a7 f1bf b870 ae2a 1ea8 14c0
000000a0: 1055 2726 9122 dabf d6a5 4e25 f338 1940
000000b0: 3328 020c b718 0f40 33e1 6037 7589 fcbf
000000c0: f004 aff7 a74b 0240 3d95 61ad b543 d03f
000000d0: 0b22 9077 0990 0640 d436 4106 c3a5 0ac0
000000e0: 847b 0386 6c28 ffbf dcc2 0c44 3b58 f0bf
000000f0: eeff 1c69 8840 febf 06f7 8ba3 1f83 0e40
00000100: b051 bf2f 0dfb 1040 1590 265d 9515 d4bf
00000110: 2e63 a047 d09a 05c0 80d4 5fde 4b9d 0ec0
00000120: 04a8 262c 23fb ff3f 249f 07f6 1b7e e8bf
00000130: 5438 a930 26ef a3bf ff94 94b0 e9e3 f5bf
00000140: a2b7 94f7 0ac9 09c0 1838 cea0 42e8 f13f
00000150: a1e3 7ede 4bdf cd3f dbdf 8a9d 1b3d f4bf
00000160: f796 6fbb b219 f03f 015c 3946 d38c ddbf
00000170: 712e bd85 6d13 0e40 70b6 eab6 2a71 1240
00000180: f6e1 7898 b017 1340 ef52 bd81 42db 14c0
00000190: a211 fab0 7be8 06c0 dc27 c231 f5f0 b2bf
000001a0: 969f 5536 d2b3 0040 fae3 0ba5 d982 0740
000001b0: dfe1 7cd5 82e9 d33f 2174 52c9 8768 02c0
000001c0: c585 cd2b b186 f0bf e438 be66 ec98 d13f
000001d0: 9246 1545 e2aa ddbf 3071 63c5 78dd f93f
000001e0: 47be 1bf4 4d71 fdbf 497f 202f 56c6 1540
000001f0: 99f3 3932 a522 03c0 bb35 198f 5a4f 04c0
0.31691036432490904 -2.9995283498500602 0.28458959811319084 1.3661027514443853 -6.334500847952312 -1.788402497869673 2.484113909787163 0.10491239397727543
0.009510994566145901 4.615737781319566 3.2932984720981557 2.109896800158061 2.0235035385561857 -2.4870095434843997 -1.2653021651263738 -1.3439325765359569
-1.5386248399640454 -0.44059016321923156 -1.1033720979459685 -5.164177576920501 -0.40835980153981755 6.305615027356415 3.8870678842695496 -1.783559051820771
2.286941466358819 0.25413267070537754 2.820330556951608 -3.3309383858348642 -1.9473691210657487 -1.0215408952901077 -1.8907550912845141 3.8140251900757702
4.245167490055266 -0.3138173494028263 -2.7005925746747357 -3.826804864215376 1.9988128399513707 -0.765394192244433 -0.03893393844610729 -1.368142785803968
-3.223165449357979 1.1192041665522137 0.23337696422620716 -1.2649189142230088 1.00627396790645 -0.4617202935964429 3.7594862411840997 4.610514505458568
4.773134596231548 -5.21412089078943 -2.8635171724619832 -0.07398922409825509 2.0878032917862113 2.938891686845179 0.3111273846475608 -2.301040242031846
-1.0328838072822333 0.274958706221595 -0.463554923500035 1.6165702543722311 -1.8401622329219138 5.443688141211006 -2.391916649240056 -2.5387469462936827

linear_relu_stack.3.weight f8 [64, 64]
00000000: 0f1a aedd 9526 0340 7adc b4e2 894d b33f
00000010: 9737 e717 0e73 923f 744f f6a6 807c b9bf
00000020: 3f7f e090 5c37 e4bf 5b0a 71a1 91ac c8bf
00000030: db17 330d 78b3 c93f 77fd 7b0a 3f13 a03f
00000040: 3984 ec72 57c8 acbf fd9a 3e1e b382 f1bf
00000050: 4948 c975 6cf8 d9bf 3885 e08b 3dd4 d23f
00000060: 2fee c1ab 6d72 e43f e453 546b 354b afbf
00000070: 35c5 2476 a863 a83f 380f 3400 3d5c 793f
00000080: 590d 8f8b 5fbd c5bf 75bd 974a 863d c3bf
00000090: 149d dfd3 3d33 563f f689 e402 ed9f d4bf
000000a0: 6855 55b1 7a87 bebf 4b3a eb1f 0ee7 d4bf
000000b0: 28f9 5a0a 79a1 9fbf 4d28 147e 3556 97bf
000000c0: d54e 330c 4b48 d33f a61d 9a07 9a8d 893f
000000d0: cd96 3fd1 329c e2bf e0f1 4ac9 3c03 a0bf
000000e0: 6007 1177 24da ea3f 5725 db7b ab35 c7bf
000000f0: 4174 4aa1 81fa cd3f bc1e 3f9a 0362 c43f
00000100: e7d3 9d25 d412 debf 62e8 9f1b c7de c23f
00000110: f9a6 f056 e7c8 953f a5f8 b00b 19ed d03f
00000120: adc2 6c75 f518 e8bf 1f1f 4601 4fea e4bf
00000130: 5a13 9d8e 3ee4 ca3f e33d f7b0 576c c6bf
00000140: eb0e fe87 2ab3 d03f 4124 9692 53bf b03f
00000150: 4769 ca99 0e6c aa3f ab42 e674 6a54 b43f
00000160: cf46 62bb 949a 873f 099f 43bd e674 b53f
00000170: 3162 04d1 9885 d0bf 5a40 2c16 040f ed3f
00000180: 1355 1d78 1e91 95bf 7e3b 35dc ba7a e7bf
00000190: 9fb0 f958 9cad f7bf 8538 3d9c a3c8 e73f
000001a0: 4279 98cf 8a43 c53f f7ff 7bea 60a4 dbbf
000001b0: 4e19 7eb3 ef82 acbf a98b 15fa dfb2 b13f
000001c0: 18e3 0ce7 ba00 acbf 24d8 4101 6e0a 993f
000001d0: 7c3c 53cc 30b3 98bf 5f99 9f40 8159 fbbf
000001e0: ebb9 eda7 bf49 d7bf 070d 1024 f714 e13f
000001f0: 2dca 92c9 514a c63f b31b 6e8a 9a6a f3bf
00000200: a9d7 0204 1f79 cbbf c976 035c 71e9 b6bf
00000210: 3c5e 706f 6e39 c03f a0da be93 ee4d 713f
00000220: a858 d611 deb0 dabf cf00 cd61 9dc3 a6bf
00000230: 7b3b bd98 9f7b 9ebf a1eb 6d1f 7b6c 84bf
00000240: 61fb 39c5 fdff bd3f c295 a0f2 cb8e b43f
00000250: 9254 e780 0ef0 e93f 44b9 9ecf 18b3 e5bf
00000260: daf8 9857 6945 80bf df12 d5ae 4ede c53f
00000270: 5eb5 6f96 8979 a2bf 87e1 aee5 6050 c7bf
00000280: 558d d91a 841e c6bf 0804 db0f 8ef4 adbf
00000290: f9d5 b93f 9b7b cebf b4df 5593 b8e2 c33f
000002a0: 6715 8fd3 cdb4 c2bf ad88 788c e0db d13f
000002b0: 2111 3f0f 2bbd e4bf 2d63 3c83 c1a2 943f
000002c0: 4068 5a95 393d d0bf 0d0b ecc9 be9c a1bf
000002d0: e179 e694 713b dd3f 6b33 508b 17fe e13f
000002e0: a119 3229 315b d33f a0d0 6181 0c40 c03f
000002f0: acda 78a2 f537 c3bf 15fa 7c82 dbee e03f
00000300: 7224 6e57 2eda cabf fbf0 4817 ec98 a9bf
00000310: 7b94 980e aae7 c6bf 3a84 61c3 df6d d6bf
00000320: 7b46 3401 666b e6bf ee4d 6d39 a705 c6bf
00000330: dc83 4419 4d60 a43f e18f c204 23b5 c4bf
00000340: 882a d1d5 e3a5 a63f 4c1a 331d 8629 bf3f
00000350: f4e0 7036 863f cfbf 8d9e 013e 85c0 bfbf
00000360: e317 cf3a 7dd4 a2bf 3b53 b8cc 0dab b0bf
00000370: 81dd a8e3 7199 03c0 74da a138 de8d d4bf
00000380: 3297 6274 1ca2 a3bf 7f2d b883 d5b5 c7bf
00000390: a4e4 9548 a032 cdbf 8490 6426 e744 c0bf
000003a0: e2d4 0c1b 35f4 b33f 2498 d2c9 3458 d5bf
000003b0: c5c0 b5e1 358f b5bf 50ba 3717 d226 b2bf
000003c0: 4129 6249 b736 bdbf dd97 e609 075c bbbf
000003d0: b1a1 d261 0e65 a23f e715 741e 3966 ed3f
000003e0: afb0 01e4 538c e2bf 4746 02c1 faf2 df3f
000003f0: 83ab 8b5a 862d dcbf 5e32 3839 9387 99bf
00000400: 1954 ebbb a2be 00c0 e67d c180 1c54 a1bf
00000410: 2ecb 7b5b b2f0 b63f 4d1a b42d b267 803f
00000420: c69b 2270 e7a4 e0bf 8c4f 1eca b735 76bf
00000430: 65a4 ac35 cf09 d23f 7bf8 96c3 b220 983f
00000440: 8ad4 64b7 ed6f a0bf bd33 de7d 810a ccbf
00000450: 2f29 159d 9803 d7bf fa58 f226 0daa 903f
00000460: 59cd 0ebf 16b3 be3f e30f a6b9 7639 b43f
00000470: cdd9 8a56 ab0f 83bf 4b03 f793 1413 a7bf
00000480: 8e15 23b3 6260 c0bf 68b4 786d 742f bcbf
00000490: 2347 4873 3c81 a8bf 2e52 9c06 4ef2 00c0
000004a0: e26f 49b3 af69 7b3f 8251 5008 6e80 e03f
000004b0: 25af 6400 ae07 d2bf 5fc2 b993 eb63 8d3f
000004c0: 0515 738d 8574 c33f 16f3 520f c376 913f
000004d0: 46c1 f56f fa33 f43f cab8 8c36 a25b f4bf
000004e0: 8260 97fc 29d4 f1bf 04de c98e bab6 9a3f
000004f0: 4fef 4b64 a501 c3bf 42be c0b8 fa6d dfbf
00000500: 7b34 0492 6259 c03f 8605 26aa 1f3b c6bf
00000510: 84fb 61bd 6546 bbbf b4a0 dc5b c739 debf
00000520: f3d6 4add 5541 a9bf 05a5 e58f a956 cfbf
00000530: 96f4 6321 23b5 7d3f 1c52 3802 cf9e d6bf
00000540: ffd8 c6e3 cdad b33f 4f07 4f86 0a8c 8abf
00000550: 11d7 1117 ce0b b9bf 9d50 b913 6947 d6bf
00000560: 9b66 641b 1870 b23f 1032 2d8b 49cb 9fbf
00000570: 34ef 56ce f08b de3f fa7d aeef 0246 db3f
00000580: ea54 1c19 6f7d cb3f 2003 deb8 9a15 cfbf
00000590: 0eed 3ce3 8942 c9bf 70fe b11a f33a 02c0
000005a0: e55a 77a1 0f0a ab3f 3024 cfc9 c2f8 b83f
000005b0: ca9a 5595 415d a2bf ac76 1b3b 2413 94bf
000005c0: d748 d1bb 1dbe 3ebf 7d04 5b83 33cd 84bf
000005d0: 4869 7b68 d243 ac3f 0e9f 79ff 5505 03c0
000005e0: 035c e840 a167 c9bf e362 33ac 70d1 c3bf
000005f0: 9d4a 4ed9 1f54 f4bf 421e a44d 27eb b5bf
00000600: 1c79 a8c1 7028 f2bf d351 c5df 6f58 b5bf
00000610: 7d64 159e 59cd 7e3f a982 1441 c4d3 afbf
00000620: 4e25 fcec e316 e63f 009b 2dd6 5c3e bdbf
00000630: b4a2 a5c4 f946 d73f b1c0 131e c797 a0bf
00000640: 45f2 c34e 0e0f bbbf 946c a55a 285d d83f
00000650: 1938 e49b 2906 e4bf 2507 9154 b0a7 d0bf
00000660: 2bff 4a58 9c9c d73f 4466 d1c6 454f 7a3f
00000670: 541d 5d96 8b28 6bbf 92b5 e6dc 5d72 a5bf
00000680: ae57 a7c8 9bd8 c4bf 4d9e 6e1d 697b a0bf
00000690: da44 c4c2 6c2d c7bf 9f6f 9ead ad07 a0bf
000006a0: 890e 5ff0 d6a5 bbbf b07f 2fac 96c7 b5bf
000006b0: cbc7 7c0d e489 c83f 2f94 c1bb 3f4b 77bf
000006c0: 2f7d 0598 f9e0 a1bf 12b9 b61b 5a68 713f
000006d0: 7768 52ac 624c c53f 2c54 3299 afb4 e43f
000006e0: ed15 bb44 fa24 d73f e12a e8f6 3cbb 97bf
000006f0: 886a ea9e 4d7f cabf e232 0f05 6f13 ca3f
00000700: 094a 9ed8 b2f9 e1bf 0052 3638 213b b73f
00000710: 2025 2752 64d6 a13f 2146 e7d1 de38 90bf
00000720: fc38 c39f 2a6e c53f 31d6 1a0f b79e c7bf
00000730: 8b96 062e 4c7f b63f e78b f246 ca73 cfbf
00000740: 5f27 a67f 1852 eb3f 23de efb0 7952 c03f
00000750: 3257 519b 9359 cbbf ec8d 6b75 52cc d5bf
00000760: 2d8f b0a0 35d3 b4bf dbe9 baea c2c6 7d3f
00000770: 592a bde2 0d42 e9bf 27ef ac08 b1e1 c13f
00000780: 2afe 1781 c9f5 643f 0adc 83d5 8726 d53f
00000790: 38eb f1b3 4d81 bd3f 4a00 39b6 9d96 d13f
000007a0: ccee 9b5d 8bc0 d0bf 50c0 95bd 3804 96bf
000007b0: 8076 734d 8370 a9bf 0593 88c8 3c53 753f
000007c0: aed5 9cad 0d81 b2bf 5ffc 5e6c 50e3 a7bf
000007d0: 3c98 7bba 6d83 b2bf 0cae 50a4 233c d6bf
000007e0: 0e7b 7285 28c4 dcbf ac84 e36b a8aa b23f
000007f0: 6ed1 4891 b7b0 b33f 2ab3 dacc ecc1 b23f
2.39384053409163 0.07540189537836453 0.018017025193152483 -0.09955600811218607 -0.6317580060603872 -0.1927663839615715 0.2007894577456558 0.03139683726294156
-0.05621598508719967 -1.0944091016223745 -0.4057875776535452 0.29420412692896347 0.6389683107985941 -0.06112067160771753 0.04763533060248407 0.006191480907776818
-0.16984171213526159 -0.15031508104537364 0.0013549903665024997 -0.32226109774106193 -0.1192547495787345 -0.32660248868061065 -0.030889407403031616 -0.022789798565135567
0.3012874240059607 0.012477115017886242 -0.5815672003634177 -0.03127469975649766 0.839128716041369 -0.18132537410410052 0.23420734763650056 0.1592411521107716
-0.4698992125843788 0.14742363785609586 0.0212741991819376 0.2644713033840936 -0.7530467313245787 -0.6536021256333447 0.21009046519807378 -0.1751813520518076
0.26093543320187845 0.06541941002628084 0.05160565974547864 0.07941308359137149 0.01152530857897052 0.08381502266604114 -0.25815411006763883 0.9080830033362972
-0.021061397629940148 -0.7337316800056752 -1.4798854327773723 0.7432420779748702 0.16612372528556746 -0.4319078721891851 -0.05568646493979888 0.06913566451616639
-0.05469307012976382 0.024453848673566494 -0.024121057959572742 -1.7093517803528682 -0.3638762607505714 0.5338092522000871 0.17414305059863136 -1.213526287787073
-0.21463382430891656 -0.08949955459999183 0.12675266686777487 0.004224712316434648 -0.41704513303683166 -0.04446117228371948 -0.02976846093889261 -0.009972535988472421
0.11718736710643675 0.08030390428083137 0.8105537908219438 -0.6781124167517096 -0.0079448919160509 0.17084678208097778 -0.03608350716954577 -0.1821404572963383
-0.1728062754728891 -0.05850643104123071 -0.23814716922394988 0.15535647577394018 -0.1461427004816571 0.27904523580412893 -0.6480918214588521 0.02015211452007575
-0.253736873486222 -0.034398996494948354 0.45675315419239665 0.5622670861208524 0.3024409200956147 0.12695461575970501 -0.15014524872977597 0.5291574047658424
-0.20978335637144913 -0.049994829027555775 -0.17894483292289806 -0.3504561813370547 -0.7006101630706348 -0.17204752258349693 0.03979721959536395 -0.1617778561823107
0.04423439011641955 0.12172735417252872 -0.24412610681770952 -0.12403137935472781 -0.03677741377718726 -0.0651100754551636 -2.449924257841929 -0.3211589386986937
-0.038346184928100505 -0.18523663455594527 -0.22810748619284482 -0.12710275053644093 0.07794505987552072 -0.3335086794780884 -0.08421646843430881 -0.07090485636556676
-0.11411614934528293 -0.10687297813146253 0.03592724746824006 0.9187284083170056 -0.5796298459295225 0.49920529221080695 -0.4402786144479977 -0.024931240432169204
-2.093083828086048 -0.03384484359480293 0.08961024030194828 0.008010284442673621 -0.5201298895016115 -0.005422323158103991 0.281848719040289 0.02356223410401313
-0.03210394729323081 -0.21907061239144623 -0.35959449138740046 0.01627369451724634 0.11992017902848796 0.07900182754934763 -0.009307230547489187 -0.04506744676792226
-0.1279414534275642 -0.1100991027130519 -0.047860993454504695 -2.1183128849463833 0.0066925872129921255 0.5156774675729567 -0.2817187312928005 0.014350738950470175
0.1519934597655849 0.01705460339575201 1.2626900075375302 -1.272371495327706 -1.114297854122953 0.026087679829712954 -0.1484877338151542 -0.4910876087405748
0.12772781495769778 -0.17367931182893076 -0.10654292939760351 -0.47227653475648457 -0.04932659460375346 -0.24483222509596927 0.007252824047324987 -0.35344290940091283
0.07687079249339844 -0.012962419723297506 -0.09783638060784151 -0.34810854841385624 0.07202292126421599 -0.031048916930830173 0.4772912993464502 0.4261481609955521
0.21476544118983237 -0.24284681345673054 -0.19734309764485441 -2.278783997113173 0.052811134777291525 0.09754578997593977 -0.03586773822717289 -0.01960426913034634
-0.00046909547729002743 -0.010157015272286291 0.05520494008460958 -2.377605434321487 -0.1984750334674744 -0.1548291054557672 -1.270538185931094 -0.08561940808805793
-1.1348731579560711 -0.08338069165376476 0.007520055836118475 -0.0621625260776047 0.6902942303287689 -0.11423282841643001 0.36370701030549957 -0.032407972737816045
-0.10569848463996674 0.38068589069525527 -0.6257522625689972 -0.2602349115223766 0.368933759902563 0.006423256459208885 -0.0033152319255439853 -0.04188817330882978
-0.16286036775153206 -0.0321915481975422 -0.18107375631419736 -0.03130858177539086 -0.10799926155510255 -0.0850767298102244 0.1917080942017136 -0.005686997374231103
-0.03491954785089956 0.004249908433321419 0.1663935986915168 0.6470563881035836 0.3616319342803241 -0.023175194330216867 -0.20700998553805428 0.20371806857146796
-0.5617307883097179 0.09074599859588517 0.03483880522578375 -0.01584194332264677 0.16742451477916365 -0.18453109967747275 0.08787990688014184 -0.24572113479834387
0.8537714474816588 0.12751694812298905 -0.2136711605441462 -0.3405958315545081 -0.08134780095184331 0.007269631761739305 -0.78931326184222 0.13970005916223124
0.0025586066847152105 0.33047672129708927 0.11525426524341931 0.2748178748624964 -0.2617519773627748 -0.021500479289386754 -0.04968653030821901 0.005206334528826022
-0.07228169907178625 -0.046656144360434075 -0.07231794169237643 -0.34742060705568245 -0.4494725516505448 0.07291653284075278 0.07691523835166489 0.07327156068158716

linear_relu_stack.3.bias f8 [64]
00000000: 6db2 4eb9 94ad c8bf bcbd 2744 2985 c73f
00000010: 4ba7 ccfb 63c2 fd3f ffa5 c032 95d3 c4bf
00000020: 3a08 5f9e 0306 e73f 2e23 329f b892 04c0
00000030: 2e17 8877 6fb5 0340 bde7 35f3 45ff efbf
00000040: 5264 592e 6d09 0640 dd6d 3719 ebf6 d23f
00000050: 529f 09a8 8abb febf 209b 0375 33ba ef3f
00000060: dc1a daed ba29 c73f 5f60 987c 6bfe ecbf
00000070: 3033 fa59 5933 f1bf 5982 809b c4c0 d13f
00000080: 1a16 2073 8e33 eb3f a67c 5c92 7f4e db3f
00000090: 3353 92d2 1259 e93f eeae a629 6186 d93f
000000a0: f41e 35bd 70c7 f63f 18e2 8f69 f288 c4bf
000000b0: de53 0bf9 2841 e83f 0bc6 401b d321 0040
000000c0: 4e96 6061 8c1b f33f b529 f737 da2a f7bf
000000d0: feb0 81a9 67b8 fdbf 1abf 92d5 01b0 ef3f
000000e0: cf78 f481 bab5 f23f 0ae8 8563 6e78 10c0
000000f0: e0b9 a92f 8fc6 e7bf c884 39d7 87ee e1bf
00000100: 49c4 8ae7 88a7 1740 bfaa 5188 bf1c e23f
00000110: c52e 31e3 0d83 fcbf 1474 e38c 7948 e7bf
00000120: 3761 69c8 e280 0740 a84a 6979 ff75 ffbf
00000130: 341f 1c82 8038 0140 6021 9486 8874 0340
00000140: d3be ad5e 52ac 1040 fd5d ab64 7eef f2bf
00000150: e78b 0700 226a b73f fcbb a561 1c26 e4bf
00000160: 9142 3415 4c6d 0340 ed64 cc3d 0452 f53f
00000170: 15a3 4247 3331 16c0 5835 7f23 f53b 17c0
00000180: ffeb 2c4f 5df7 f6bf 73c2 6d2f 3560 17c0
00000190: 6a34 7570 0654 f4bf cee2 bd56 66f0 ee3f
000001a0: 9f9c 5cb5 3fcf d6bf 0070 da30 9d9b e13f
000001b0: e2c6 9b10 1144 f6bf 90ed dfe5 1085 f9bf
000001c0: 1337 b654 690f 06c0 44d2 202f a716 0140
000001d0: 4d6d 8178 2c6a 03c0 f2f7 5da3 454b eb3f
000001e0: f131 b918 ae2f 05c0 c092 4653 bd03 ecbf
000001f0: 0dd5 ed68 27ba 0640 7460 1660 c719 c1bf
-0.19279727028096563 0.18375125720875285 1.8599586330332893 -0.16270699480200787 0.719484147375858 -2.5716412007499434 2.4635915125280894 -0.9999112844663994
2.75460277757933 0.2963207002883033 -1.9207865299194578 0.9914796147757876 0.18096100438943707 -0.9060571130276108 -1.0750363840808852 0.2773906248640166
0.8500435112516158 0.4266661576566072 0.7921232331014835 0.3988268763302888 1.423691500751315 -0.16042928842922843 0.7579541076798895 2.0165159348623596
1.1942256740379835 -1.4479620157386368 -1.8575207349159082 0.9902352496482962 1.1693673206678346 -4.117608599708555 -0.7429881983678648 -0.560367508278568
5.913608186573648 0.5660092985611626 -1.7819956659977134 -0.727597022221405 2.9379325539740893 -1.9663080923680045 2.1525888600189322 2.4319010271030237
4.168282965998247 -1.1834701473616172 0.09146320820541086 -0.629652205197885 2.428367772729253 1.3325235761643015 -5.548047173921778 -5.808552317275222
-1.4353917210380585 -5.843952885698502 -1.2705139534839653 0.9668456739592217 -0.3563994666205392 0.550245852867647 -1.3916178368348757 -1.5949868182641218
-2.757525121508374 2.1360610658541948 -2.4268426336763356 0.8529384794962864 -2.64828128161593 -0.8754564882734357 2.8408954808788907 -0.1335992068459323

linear_relu_stack.6.weight f8 [64, 64]
00000000: 3057 c71c 05af cfbf 92a5 007a 8de2 c13f
00000010: 812b 9fe7 25db cb3f db40 0556 e578 babf
00000020: 3dd7 9f5c 8491 5e3f 8e5d 1c22 6a84 9bbf
00000030: dff3 9690 a70b d5bf 5d9f 5d2f d3d7 eabf
00000040: f40e aa03 939c a5bf 4624 b2d0 0871 b43f
00000050: ba20 9755 77c2 c9bf e559 3699 94c4 aebf
00000060: 24f9 bbb2 219b c8bf 655b 0d3a 34e2 a0bf
00000070: 9087 a857 556c 933f 71aa 9a8c 16ac c53f
00000080: 9644 9568 1824 92bf 0478 c232 3c27 cebf
00000090: 9ff6 8da3 59ea cdbf bb3b 84b3 ea65 bbbf
000000a0: 1a95 a489 f340 d1bf 762c f6a6 345b edbf
000000b0: 5fd5 77cd c4d8 bdbf dd34 d96e 40c2 943f
000000c0: f6fb be62 822f c1bf c2d2 fb0b 5dd8 c33f
000000d0: d8dd 5867 2d76 bf3f 2144 b434 1bf3 7ebf
000000e0: d71e acae ce58 bb3f 26c6 0986 95f6 ac3f
000000f0: 0611 131d 0fb7 d33f 37f4 0868 d2a7 dabf
00000100: a0bc b4b8 003f c0bf c9dd b031 1a1a b2bf
00000110: d35d a2b7 3ae9 b2bf ce3d 2f2b 167f d63f
00000120: a660 0e41 273c 8fbf 96b8 0237 5d26 a23f
00000130: 16d2 7821 56c2 b13f f9d8 99b1 da3b e5bf
00000140: d6e4 fc0f b489 c5bf 7f67 9e72 b619 d23f
00000150: c90a 8617 92ec bdbf 5762 c734 0083 bb3f
00000160: 7fa8 5908 58ff 753f a0d6 7a0c 323c bd3f
00000170: 5de3 4a52 6427 d33f 70e0 fcbd 7acf b7bf
00000180: 18b9 913a 0ea3 db3f 82f8 4f23 2e80 b43f
00000190: e53e cfe1 a172 df3f ab08 5ed0 1eb0 c7bf
000001a0: 2477 820b db9b 88bf 4a7b 5437 069a 983f
000001b0: 0655 cd9c c874 ae3f 8ba5 2deb 0f25 b8bf
000001c0: bc0e 0cc9 936a ba3f 8ae5 b841 7e23 b3bf
000001d0: 769a ca40 8677 a7bf 0d22 af12 768e c63f
000001e0: 12b9 5a3a 719d aabf 3da9 c79a 96a8 c5bf
000001f0: 115b 120c 564f c6bf 6175 7417 d194 c5bf
00000200: 9346 e6b4 dab6 e7bf b3cc 71d4 b6b9 f9bf
00000210: 0f0f c4ff 3fbd c63f 49fb 0daf 904b c13f
00000220: 13b0 64e9 0bc6 90bf ff86 3e7e 4d71 d1bf
00000230: b4a8 8725 2fbe bebf 1020 78b7 bae2 0340
00000240: 3eec 91c5 0070 a93f cc8c 8865 8ae7 cebf
00000250: d25c 877c c7fc c5bf 55d6 e1c4 1503 b1bf
00000260: 49c5 8867 f6e1 d4bf 8804 d296 b5cd c9bf
00000270: 9a8b aee6 5e93 aabf 294b f114 c9eb bb3f
00000280: 0127 c850 5d0a 8ebf 126f f6a4 3d83 e2bf
00000290: 3e54 de59 6104 c6bf 80d8 76c0 efa1 cebf
000002a0: b817 fac1 2fe3 cb3f 5637 9ffd dceb e7bf
000002b0: 9ce0 2662 1c29 d33f 244e 19ed c459 a13f
000002c0: 96ed 88a4 a637 c63f 42ed 9a25 24ad b83f
000002d0: 284f db96 072f 12c0 22f0 266e 0dac c8bf
000002e0: ea8f f5d7 f33a debf 8c91 0ce7 5bfb d2bf
000002f0: 579f ad27 bce9 da3f 4633 9034 8c2c c73f
00000300: 5406 86d7 2fe0 bbbf 7120 2e9b 504d b2bf
00000310: 38a6 32c8 6776 0ac0 2a37 a4a0 4e4a bf3f
00000320: 5a38 8c77 7e9f 90bf 10fb 035c 0549 aebf
00000330: dba1 d17b 5aa2 d3bf e907 0360 d794 d7bf
00000340: cdd2 8f38 bbb1 6bbf 3f9c c7ec 651e acbf
00000350: 8b3c 3d75 20ec a33f 928a f2a5 8c35 e8bf
00000360: d3a0 a18d 806c cc3f 71d3 b0e8 c1b0 cabf
00000370: f00a 0d96 dc2e be3f a124 8f91 24f5 cabf
00000380: 52fd e872 02db 1ac0 48a0 5e4f dcf6 d7bf
00000390: 3962 b5b2 609c acbf 461e b9a7 0015 e6bf
000003a0: 9742 4965 8f58 cabf ba6b e310 6b06 a9bf
000003b0: ab89 9e58 a2fe d23f 77a4 47b8 baf5 a4bf
000003c0: d8bc afeb 72da d8bf 4f95 82d9 7fc1 b33f
000003d0: 828d fa4c d506 d33f a903 6c7b 0917 a7bf
000003e0: e77d 804c 0803 c43f f7f8 dd9b 0fee ef3f
000003f0: fb1c 0a3b be7b d33f 5692 8414 5f0c 863f
00000400: d350 0303 17ba d4bf a2e9 a173 94e9 c53f
00000410: 981c bbdf 504e d53f 1260 5904 04fb c6bf
00000420: 425c 377b 6fc9 953f 08cd 96ae 3a6a cabf
00000430: 92d5 da84 a85d 9d3f 9bbd 5fdd 3347 ea3f
00000440: dba9 8598 ceda a1bf 1d84 f268 04ab b33f
00000450: c55c 5cfe 9228 dabf 81a7 d12b 18e9 aabf
00000460: 61e9 970b e28b dcbf cf5f 2904 716c 9e3f
00000470: d63b b805 4e0e c8bf a1b4 96bb 472b 8c3f
00000480: b40f 7d90 fe63 993f 21ac 423f 9c35 a73f
00000490: e825 e344 6b3d cd3f 5062 6e48 c70b c53f
000004a0: e001 ed96 c143 e83f b2d7 e512 ef04 873f
000004b0: 1a7b 5397 2a4d d03f abcc 4168 81e3 c3bf
000004c0: a7a6 89a2 b088 c43f 2cd7 0d10 034b cc3f
000004d0: 0378 a473 e433 f2bf aafe 56c2 bc9c a1bf
000004e0: 87dd da6e a3c8 d8bf 41ac 20df 1a0c d03f
000004f0: 48a8 a33b cbc8 c43f d8f8 bc93 d8c4 c6bf
00000500: 1a1a 9da7 1947 84bf cbbe da5a 7993 bf3f
00000510: 772e 46f5 ffc8 f1bf cbb1 0753 a8f6 b13f
00000520: 405c a08a 0d9b a9bf 7915 54d7 e1ff 9bbf
00000530: 09a3 3201 c5d0 dbbf f40b c9ee 4d05 cfbf
00000540: 3435 b769 e6b2 cebf 2dd4 b429 3cd4 ba3f
00000550: 1641 ba20 f384 c53f f4b1 24fb f59b b7bf
00000560: fcec 4099 5509 253f b26b aada 2348 b03f
00000570: 57a3 eb0f ed9c d2bf 644d 53d9 5392 bd3f
00000580: e770 2aad 30af d53f 265e ef57 d2ee c43f
00000590: 0b69 2275 fb8b be3f 584d 4dd8 aed4 d5bf
000005a0: a214 8475 7ee3 c5bf 5258 5e01 4fcf a6bf
000005b0: 47b2 6f29 3822 bf3f 40b5 0401 d35a a6bf
000005c0: 9db4 07b4 9305 d3bf 8d09 3f44 22c6 a7bf
000005d0: 7cba 042a 520f c7bf 8177 681a f618 c1bf
000005e0: eda5 9145 5c7a b8bf 174b f526 cc0d cd3f
000005f0: 6e86 d9fa 3c02 b7bf be21 ebbc e38d b93f
00000600: 102a 2e80 df35 88bf 7005 5650 ba99 933f
00000610: 94aa 4a34 cad2 e33f 68b2 a9fc 52a9 efbf
00000620: bed0 d5d5 8427 b93f 8f3a e1c1 fda7 debf
00000630: 5104 a1c5 dd4e e5bf 77b7 1d9b 619b e6bf
00000640: 255d 2e77 0e93 e33f 005f d7a3 e4f6 cabf
00000650: ee67 dd45 c3f4 dfbf c23a 7a66 191d bcbf
00000660: dab5 ca7b 1581 e6bf 70dc a849 3b0b d8bf
00000670: 16e9 6869 2845 e6bf 5b1d a239 6316 c0bf
00000680: b505 f25c e8ed ce3f 44aa 3f13 de71 cd3f
00000690: bdb0 2d6f a00f cabf 0881 a186 e3f3 d2bf
000006a0: 4fef bd32 6f01 e03f a627 91ef c725 e03f
000006b0: f333 c9a0 dbf2 c5bf a334 484a cc05 e2bf
000006c0: 16d0 51e3 2d94 e13f 1377 d582 6fea f2bf
000006d0: c53a de58 4449 fdbf fb90 ad58 42b4 ce3f
000006e0: e04b a7b6 bac4 c23f 0d3c 9a93 7a18 f13f
000006f0: 7753 499e 1db8 e4bf a498 93e3 bef6 e4bf
00000700: 3170 eb88 90be 60bf 25c9 6412 1799 dfbf
00000710: d891 aae9 e02c cebf 7061 a676 89ad e9bf
00000720: a13f c654 8ebc d83f 4f70 d5be 3730 c2bf
00000730: 3a1a 65e5 1e4c d0bf 0da1 1600 2b30 c83f
00000740: f2be 3b39 608d d43f 58c8 92fd dc6f d43f
00000750: 01e3 2d01 3ceb 9d3f e04b 8a39 cba7 f5bf
00000760: 7a78 35b6 a4bf d13f c47b 6545 6303 d43f
00000770: a6b3 e9a9 b3a2 9bbf bd49 4b4b 1408 02c0
00000780: 8d39 9e77 9909 d93f be2e f6d4 890d f63f
00000790: ca56 5e22 80c7 a5bf 9178 2b67 f853 b1bf
000007a0: 8b7d f839 5680 cbbf 2e65 e89d 8ab0 c4bf
000007b0: d935 8855 fb53 dbbf 5ed8 3477 d0b9 db3f
000007c0: eb50 3b61 c7d2 f6bf f578 e81e d870 c4bf
000007d0: 845b 1e56 2d04 e33f 79f7 d0c0 74d2 adbf
000007e0: 88f2 244d d39a d83f 71b2 e8ab 6982 ce3f
000007f0: 95c4 fff6 1027 d2bf 6a8a c5e0 3982 b9bf
-0.2475286856194372 0.13972633797793016 0.21762536821037418 -0.1034072241793668 0.0018657486530151 -0.026872309047659075 -0.32883633728107314 -0.8388458180533963
-0.04221019191484557 0.07984976859201351 -0.2012471359178159 -0.06009353990809866 -0.19223424174556059 -0.03297579964298939 0.018967946505774658 0.16931421151578577
-0.01771581781696748 -0.23557236174104912 -0.2337142990690397 -0.10702387697914066 -0.2695893139046618 -0.9173835049599706 -0.11658887878714584 0.020272261396077396
-0.13426236936172103 0.15504038891926625 0.12289699338076987 -0.007556062958671312 0.10682384266339838 0.0565687872048211 0.3080480369501547 -0.4164930358854834
-0.12692269343231022 -0.0707107898059497 -0.07387129767663873 0.35150675027122424 -0.015251452133995546 0.03544894501224964 0.06937158887087266 -0.6635564297455679
-0.16826487332017476 0.2828193778346914 -0.11689103197390262 0.10746766365571979 0.005370468022741658 0.11419976048167735 0.29927928959255273 -0.09300963533758178
0.431827122875704 0.08008087503546515 0.49137160350527004 -0.18506226705728088 -0.012016021050210997 0.024025056006503655 0.05948473848426698 -0.09431552402170078
0.10318874033333264 -0.07476033310458355 -0.04583377400313264 0.17622257149038525 -0.05198243939718074 -0.16920740659345226 -0.1742961462921007 -0.16860402722606252
-0.7410710843270912 -1.6078403757681314 0.17765045155112388 0.13511856601322794 -0.016380487556645628 -0.2725404484609583 -0.1200894800782944 2.485707696298057
0.049682640187676416 -0.241441058709006 -0.17177671032434333 -0.06645332390493171 -0.3262916575505029 -0.20159025062824676 -0.051905599269296235 0.10906655083935547
-0.014668206241384764 -0.5785206052709972 -0.17200867546185522 -0.23931691072147387 0.21787068339852822 -0.7475419000199774 0.29938420853751224 0.033888009970408
0.17357333215646226 0.09639192503066332 -4.545927388320514 -0.1927506244518336 -0.47234817590492517 -0.29659173549068707 0.4205160510523362 0.18104698721472284
-0.1088895703487876 -0.07149223126009631 -3.3078151359993875 0.12222758695517358 -0.016233421370138813 -0.059150855524413015 -0.3067842682999335 -0.36845955253750035
-0.0033806473406861937 -0.05491941943528688 0.038910879432131194 -0.7565367928658182 0.22206122317880403 -0.20851920949794647 0.11790255225518442 -0.21060616595631124
-6.713876529188683 -0.3744421744436335 -0.05588056737423525 -0.6900637889711525 -0.20582764096845516 -0.04887709218174714 0.29679163603045805 -0.04093726634511879
-0.38833306328065254 0.07717131672196341 0.29729206578686995 -0.04509763366332404 0.15634254203267448 0.9978101772574338 0.3044276787336028 0.010765784085898716
-0.3238580254958496 0.1711907925235439 0.33290502403947064 -0.17953539097175103 0.021276227851412928 -0.20636685871941318 0.028677590473952082 0.8211917232237512
-0.034872490042136405 0.07682826578322062 -0.40872645225449517 -0.052559619282717136 -0.4460377801148266 0.029710546378140464 -0.1879365470817606 0.013754425441982856
0.02479551083457894 0.04533088943693309 0.2284368597377544 0.16442194973639568 0.7582710216302608 0.011239879383292937 0.25470986154498265 -0.1553804167811895
0.16042144714747517 0.221039183463 -1.137669040420861 -0.03439893600761697 -0.38724599672010424 0.250738828561854 0.16237774288248574 -0.17788226331499035
-0.009901237895644722 0.12334402530791093 -1.111572225668082 0.0701699450216388 -0.05001108472077265 -0.027343300597768547 -0.4346172820756214 -0.2423493781990086
-0.23983459627053494 0.10480094927045576 0.16811980340981653 -0.09222352391652305 0.00016049547105177048 0.06360076988714417 -0.2908280044053319 0.11551403098865404
0.33881775770875183 0.1635382584924951 0.11932345971800744 -0.3411061394046633 -0.17100506532748222 -0.04455038921075584 0.12161589633587609 -0.04366168391639258
-0.2972153909784739 -0.046433516341056615 -0.18015505839999324 -0.133574259657447 -0.09561707209072497 0.22698356535200823 -0.08987790226231038 0.09982131349818865
-0.011821504687550749 0.01914111247379452 0.6194811841317738 -0.9894194540807577 0.09825926037393892 -0.479003371558897 -0.6658772334996091 -0.706467440568061
0.611701233649829 -0.21065958023131515 -0.4993141348146527 -0.10981901885882464 -0.7032573144730876 -0.375685522015778 -0.6959421213898931 -0.12568321527599377
0.2416353658518752 0.23003745975377587 -0.20360188892971634 -0.2961357893709793 0.5001750937512756 0.5046119383853138 -0.17147393561245358 -0.5632077647038795
0.5493382873378347 -1.1822352514931864 -1.8303874465379277 0.23987607316951895 0.1466287032950211 1.0684762731286839 -0.6474750606090386 -0.6551203198294115
-0.002043993277181876 -0.493718879664032 -0.2357445851277038 -0.8024337117558797 0.3865085437655527 -0.14209648912481262 -0.2546460380730512 0.18896996979061279
0.32112889851758475 0.3193275905897557 0.029217660495734602 -1.3534652946152548 0.2773219851859562 0.3127067735385334 -0.02698784565511727 -2.2539449579573714
0.3912109058518574 1.378305274850319 -0.042537693210005736 -0.0676875354651847 -0.21485402899359615 -0.16163761816350458 -0.4270008406900537 0.43321620599033916
-1.4264596746552864 -0.15969373234924658 0.5942598993304817 -0.05824627736772831 0.3844497922289425 0.2383548821830064 -0.2836344158268472 -0.09964334237660358

linear_relu_stack.6.bias f8 [64]
00000000: b2cc 7af7 cd41 e9bf 3fc0 f362 2c70 0140
00000010: 7775 cb8a 71a6 ef3f 4538 57a9 36fc febf
00000020: eddb f9db 48a8 f1bf 2c77 f888 4b09 0040
00000030: d23b 2237 0641 0240 999e de8c 1708 e73f
00000040: 8eea cc81 d1e5 1040 29d5 786e 01c1 0140
00000050: 8029 2381 8ba6 0e40 129d 039f 8690 0740
00000060: f010 d765 f1c9 0740 d06a ec99 d00e fdbf
00000070: 4507 2c85 d3a3 0ec0 8ac1 b174 96c4 d6bf
00000080: e3e9 c39f 55ee e63f 85ba a561 cd0e 0540
00000090: 5a4c 8471 83f7 11c0 a3a4 f6ab f9b6 e73f
000000a0: eb74 a70c 9c81 d3bf 133e 6dff 2c87 d7bf
000000b0: 664b 520f a439 de3f f5b2 91f4 ef10 e43f
000000c0: 0713 dba8 cbf2 f13f 13e9 b40b 7378 ebbf
000000d0: c1d4 f9d0 7301 ebbf bbb2 5f3d 7d7f fdbf
000000e0: 2d7b 5baa aad7 0a40 7dac 0ab3 a16a e1bf
000000f0: c189 7560 512c ff3f ba1d 29b8 5fac 0240
00000100: 436f 1416 e610 fdbf c509 f607 9176 e3bf
00000110: 01b5 c5d2 a02f ee3f c09d 8832 218f d43f
00000120: d0eb aaff 2d77 f4bf 93d7 4620 6d2a f4bf
00000130: 2ac6 16b8 58d2 ca3f 55d1 abf4 e16e 0440
00000140: a1d5 7dbb 0583 f23f b73d e7be 697d 0840
00000150: e934 953a 5326 f4bf 2a3d 60a3 4b3e f7bf
00000160: 8dc6 2c4e e430 03c0 add4 04f8 eebe ed3f
00000170: 208a 0ced d6a0 0340 b8ce b745 9cde e3bf
00000180: 113f 061c 64ee f83f 8e62 4488 4afe d43f
00000190: 384d 7ea9 8b56 dabf c7d1 eddc 9752 e63f
000001a0: a4af 29a7 dc34 f0bf b520 a1e1 150c 0f40
000001b0: be60 f1c5 f8bc f23f 1239 d02d c90d 0d40
000001c0: 1aea 52a6 3eb6 e9bf f9f4 3d41 ef2b 0140
000001d0: 90b3 f9fc 34d1 fb3f 8951 bc0a 7142 d53f
000001e0: 1044 0e03 3176 e63f bbdd 978e 463a f73f
000001f0: 5555 e0f2 675c fd3f 3d06 1783 4512 f2bf
-0.7892827828967681 2.179772160590829 0.9890678129992655 -1.9365755667563616 -1.1035851090252848 2.0045386029077203 2.2817501361200607 0.7197377921447298
4.224432018406004 2.2192410116791916 3.83132077110821 2.94556926946428 2.973604961038397 -1.8161169064175517 -3.829993286520138 -0.3557487620919565
0.7165935631194852 2.6322276714993813 -4.491712354373783 0.7410858496342779 -0.3047857402396647 -0.3676254743959088 0.472268118822447 0.6270675446263271
1.1217762561729516 -0.8584532955785867 -0.8439272958336447 -1.8436252972998506 3.3553059872787316 -0.5442665573986144 1.948319794457902 2.3341669452235836
-1.8166256773465228 -0.6082234530916187 0.9433139912268019 0.32123594221999596 -1.2790966021554944 -1.2603579769906659 0.20954426754683314 2.5541419138846018
1.1569878887070006 3.0612368501967597 -1.259356716956342 -1.4527088529465098 -2.398872957936709 0.9295573085897978 2.4535349387599723 -0.6209241258315705
1.5582009405806654 0.32802069957100677 -0.4115323214729929 0.6975821795481857 -1.0129057435797018 3.8809011103913584 1.1711356861251683 3.631731374661407
-0.8034966705811855 2.146452436164165 1.7385759240962422 0.3321802716102629 0.7019276675874853 1.451727444653314 1.8350600707393216 -1.1294608231259098
